checkpoint_dqn.pth (torch, 22159 bytes, 6 tensors)

fc1.weight f4 [64, 8]
000000 d2 68 c4 3e 93 29 2c be c4 ec 69 3e eb b4 83 be
       0.38361222 -0.16812734 0.22844225 -0.25723967
000010 d9 82 1d 3e 28 9c 27 be 96 cc 0b be 1b 7b ae 3e
       0.15381946 -0.16368163 -0.13652262 0.34078297
000020 af 45 69 3e 7b 02 82 be 55 88 e2 3e 83 a8 1c bd
       0.22780488 -0.25392517 0.44244638 -0.038246643
000030 de 78 d1 be b1 e7 1f bf 43 cf d2 be 5a a0 42 3d
       -0.40912527 -0.6246291 -0.41173753 0.047516204
000040 51 d4 43 be d6 db 2a 3e ed 38 b2 3e 86 7c 8b bf
       -0.19123961 0.16685423 0.34809056 -1.0897377
000050 39 eb 1d 3f 4c dc 4d 3f ec f4 eb bd 56 94 7f 3e
       0.61687046 0.8041427 -0.115213245 0.2495893
000060 c1 5f 52 bd bb d9 51 bd 29 28 01 40 38 10 0b c0
       -0.05136085 -0.051233035 2.0180762 -2.172865
000070 06 70 b2 be 8d 09 c3 be 28 87 10 3e e8 99 b9 3e
       -0.34851092 -0.38093224 0.14114058 0.36250234
000080 bf cd b1 3e 60 b5 c8 be 7c a4 27 be 55 73 8d bf
       0.34727284 -0.39200878 -0.1637134 -1.1050822
000090 1f a0 25 3f ad 8d cd bd 8d 86 04 be 87 fb a9 3e
       0.6469745 -0.10036788 -0.12941952 0.33199713
0000a0 ca d8 59 3e 0f 7c 89 be c5 92 5d 3f 47 18 9f bd
       0.21274105 -0.26852462 0.8655208 -0.077683024
0000b0 8a 62 07 bf ff 74 20 be 37 2a 08 3e fa bd f8 3e
       -0.52884734 -0.1566963 0.13297354 0.4858244
0000c0 79 c5 b3 be f2 ab ef bd a9 0d 06 3e b1 6e d7 be
       -0.35111597 -0.11702718 0.13091148 -0.42076638
0000d0 be dd 31 3f ab f1 9e 3e b8 c3 3b 3e 8b 24 69 bf
       0.69478977 0.31043753 0.1833638 -0.91071385
0000e0 78 1a 6d bd 27 3c 2a be 96 23 4d 3d 43 1c 83 bf
       -0.05788657 -0.16624509 0.050082766 -1.0243
0000f0 8e bd 3f 3f e1 d1 6c 3e 9d 8b 24 bd a2 42 f9 3d
       0.7489861 0.23126937 -0.040172208 0.12170912
000100 f6 d4 9f 3e ec e2 a9 bb cd 7c 36 3f 7d c7 34 bf
       0.31217164 -0.005184522 0.7128418 -0.70616895
000110 bc fa c1 3e 9a 4b 52 3f 51 0a f2 bd 8d 81 bc be
       0.37886608 0.8214661 -0.11818374 -0.3681759
000120 60 a5 b6 be 20 73 8b 3f 9b d9 72 3f de c2 14 40
       -0.35673046 1.0894508 0.9486329 2.3243937
000130 14 fb 4b bf cb e3 d0 bc 30 20 f4 be 73 43 76 3e
       -0.7967999 -0.025499245 -0.47680807 0.24049167
000140 44 22 08 bf 51 73 2e 3f 01 0d e3 3e f7 3d 75 bf
       -0.53177285 0.6814471 0.4434586 -0.95797676
000150 58 5d 05 bf 1e fb 3b 3f a0 da bc 3e 62 1a 7e 3d
       -0.52095556 0.7343005 0.36885548 0.06203688
000160 f5 0e 56 be 00 75 ab 3d 5b 86 a4 3e d5 15 49 bf
       -0.20904143 0.08371925 0.32133755 -0.7854894
000170 a8 32 14 3f 36 13 f4 3e 62 ee be be 77 bc df be
       0.57889795 0.47670907 -0.37291247 -0.43698475
000180 26 0b 84 be 90 88 f2 3d 95 c3 e3 3e be 37 0b bd
       -0.25789756 0.118424535 0.44485155 -0.033988707
000190 68 10 39 3d e0 7a 2f 3f 59 a1 1d 3e c6 a5 17 bf
       0.04518166 0.6854687 0.1539358 -0.59237325
0001a0 41 73 44 bf 81 24 3b be d4 41 69 bf 6b 28 e0 be
       -0.76738364 -0.18275644 -0.9111607 -0.43780836
0001b0 d0 9b 86 3e 23 b5 07 3e f5 e9 0e 3d 76 a8 14 3e
       0.2629075 0.13252692 0.034891088 0.14517388
0001c0 0c b9 f9 be ec 5a 0f 3f c4 d5 12 3f fd 93 88 bf
       -0.48773992 0.5599811 0.5735743 -1.0670162
0001d0 63 c0 7d bf 8b 12 3e 3f 3b e0 db 3e 70 4d 68 3e
       -0.99121684 0.74247044 0.42944512 0.2268579
0001e0 16 08 1b bd de c9 8e bc 47 84 14 3c d8 63 c9 3a
       -0.03784951 -0.017430242 0.0090647405 0.0015364839
0001f0 4f 96 5f bd d8 9d 7f bf 36 2d 7b bf 2e 27 09 3d
       -0.054586705 -0.99850225 -0.9811586 0.03348463
000200 aa ba 66 be 9b 3e 00 c0 fa 06 87 be 63 52 e9 be
       -0.22532144 -2.0038211 -0.2637251 -0.4557067
000210 42 63 81 3d 87 9a cd be 0f d5 96 3e 1b e2 69 3e
       0.0631776 -0.40156958 0.29459426 0.22840159
000220 e8 b9 b8 be 27 f6 b5 3d 49 dc b2 3d 07 a1 f5 3e
       -0.36079335 0.088848405 0.08733422 0.47974417
000230 12 ce f1 3d 7a 52 77 3f 55 c8 27 3f f1 f5 ac be
       0.11806883 0.96610224 0.6554006 -0.33781388
000240 80 e7 67 bf 5d e9 d3 be a6 85 91 3d 90 c0 77 be
       -0.90587616 -0.4138898 0.071055695 -0.2419455
000250 03 1b 97 3f 64 e8 e7 be 51 5b 63 bf 08 66 f0 bd
       1.1805118 -0.45294487 -0.8881121 -0.11738211
000260 46 67 a1 3e cc a6 03 3f 7a a2 b0 3e 75 9d ad bf
       0.31524104 0.51426387 0.3449896 -1.3563677
000270 b2 0a cc 3e c4 84 d6 bf da 9f 43 be 49 38 ba 3e
       0.3985191 -1.6759267 -0.19103947 0.36371067
000280 27 47 48 bf 26 60 c9 be a5 59 6a bf 32 e7 34 bf
       -0.7823357 -0.39331168 -0.91543037 -0.70665276
000290 4a b6 74 3e 8a 2b c4 be 11 2f b9 bd d2 e7 11 3f
       0.23897663 -0.38314468 -0.0904218 0.56994355
0002a0 69 c8 be be a8 e8 6d 3e 5a 37 dc bd 4a 46 72 be
       -0.37262276 0.23233283 -0.10752745 -0.23659626
0002b0 67 c0 41 3f 55 14 b3 bd 78 e7 1a 3e 12 e3 eb 3e
       0.7568421 -0.087441124 0.15127361 0.46071678
0002c0 25 fc a4 3d ce cc 93 bf 8e d5 83 3f da f8 93 bf
       0.08055905 -1.1546876 1.0299547 -1.1560318
0002d0 3e 7c 5f bf 68 ca 5e bd b9 74 98 3e 68 d8 c9 3d
       -0.87298954 -0.05439225 0.29776552 0.09855729
0002e0 2c c1 3d 3f 38 2e ac bf 80 a8 f3 3d e4 ce 48 bf
       0.7412288 -1.3451605 0.11897373 -0.7844069
0002f0 28 65 8a 3d 90 76 12 be b4 dd 13 3e af e1 1a 3e
       0.06757575 -0.1430304 0.14440042 0.15125154
000300 59 e0 28 bf 03 b1 48 be c1 a0 11 bf f1 6e f6 be
       -0.6596733 -0.19598775 -0.56885916 -0.48131517
000310 2f a8 2c 3e cc c6 88 3e a5 d8 a0 bd 67 6d 6b be
       0.16861032 0.2671417 -0.07853822 -0.22990952
000320 a5 d1 f8 3e d6 5b f5 be ba 87 9b 3e 48 db 15 bf
       0.48597446 -0.47921628 0.3037699 -0.5853772
000330 45 c5 3b be 4a b8 46 bd 3d 81 52 3d d0 0a b7 3e
       -0.18336971 -0.048515595 0.051392782 0.35750437
000340 38 c1 45 be 5f 6c 7f be b0 0b ab 3e dd f4 a2 be
       -0.19311988 -0.24943684 0.33407354 -0.3182744
000350 6a 1f ae be b0 bf 0b be 8e 77 dc bd d4 4b 99 3e
       -0.34008342 -0.13647342 -0.10764991 0.29940665
000360 6a 02 f2 3e 11 dd 18 bf 9b 8d 49 3f e2 8b ac bf
       0.47267467 -0.5971232 0.787317 -1.3480189
000370 27 81 75 3e a4 55 03 3d e7 b1 f7 bd e2 ba 38 3d
       0.23975049 0.032064095 -0.12094479 0.0451001
000380 78 20 d8 bd 8d 0d 62 3f c1 43 35 c0 0f d6 9e bf
       -0.10553068 0.88301927 -2.8322604 -1.2409075
000390 01 4d 19 3f 8e bc 64 3e fb 10 b3 be 1b 3d d2 3e
       0.59883124 0.22337553 -0.34973893 0.41062245
0003a0 e6 42 31 3e 7f 60 8d 3f 50 ea 58 3e 7b 3a 21 bf
       0.17310676 1.1045073 0.21183133 -0.6297986
0003b0 97 fc eb 3e f5 2d c2 be d2 0c 57 bf 5c 3c 84 3d
       0.46091148 -0.37925687 -0.8400394 0.06456825
0003c0 d7 b2 c3 3d a5 65 a4 3d d3 c4 dd bd f4 ac f8 3e
       0.09555595 0.080272 -0.10828557 0.48569453
0003d0 c3 b1 9d be c9 1a 75 bf 0c f5 a7 3e d6 4c fd 3d
       -0.30799684 -0.95743996 0.32804143 0.12368171
0003e0 03 b2 77 bd 74 f6 3e bd b3 e1 9b be a7 06 0c be
       -0.0604725 -0.046621755 -0.30445632 -0.13674413
0003f0 e1 8a 6b 3f 23 88 b9 3c 6c 3c 98 be 08 7d 5b bf
       0.9200879 0.022647923 -0.29733598 -0.8573766

fc1.bias f4 [64]
000000 ce c0 c5 be 42 41 26 bf 89 21 4a 3e af 88 58 3c
       -0.3862366 -0.64943326 0.19739355 0.013216182
000010 ac 91 bd be 22 1a 26 be e9 ec b7 3e c9 04 e5 3d
       -0.370252 -0.16220906 0.35922936 0.11182553
000020 c8 15 b4 3e ed fe 43 3f d2 c6 2f 3f e0 fa 83 3e
       0.35172868 0.7656086 0.6866275 0.2577734
000030 6c 25 04 bf 85 bd fc be 2e 28 1d 3f 89 ea 9b ba
       -0.516196 -0.49363342 0.61389434 -0.0011895458
000040 01 24 e9 3d 9c 92 a3 be 9d 93 b4 3e 73 f3 3e 3e
       0.1138382 -0.31947792 0.3526887 0.18647556
000050 e8 3e a8 3d 8f 52 97 be bf c8 d0 be 5f cc 92 be
       0.082151234 -0.29555175 -0.40778157 -0.28671548
000060 d8 99 be be a6 16 d0 be ec bd 0e 3e 3c b4 bd bd
       -0.37226748 -0.4064228 0.13939637 -0.092628926
000070 89 e4 b3 3e b4 55 1a be 90 72 83 be b6 f8 87 3e
       0.35135296 -0.15071756 -0.25673342 0.2655694
000080 19 90 bd be 16 04 f5 3e 59 1f d4 be 3f 63 dd 3d
       -0.37024 0.4785468 -0.41430166 0.10809945
000090 65 29 bc 3e 73 bb e9 3e 97 be ab be d6 f8 1b be
       0.36750332 0.45650825 -0.33543846 -0.15231642
0000a0 e5 56 e8 3e 36 6f e2 bd 17 da 73 3e 12 74 67 be
       0.45378795 -0.11056368 0.23813663 -0.22602871
0000b0 49 e6 9e be 56 39 90 be e1 af 5f 3f 8b 22 65 3e
       -0.3103507 -0.28168744 0.87377745 0.22376458
0000c0 63 0b 4d be 88 31 af be 07 cc 69 3b 61 dc 22 3f
       -0.20023875 -0.34217477 0.0035674588 0.6361752
0000d0 81 14 02 3e 34 a7 ea 3d 5c 6e 9c 3d f4 a9 8b 3d
       0.12703134 0.11457673 0.07638237 0.06819525
0000e0 f6 ef cd bd 4e 0a 52 3f 94 28 31 3e 74 68 6a be
       -0.100555345 0.82046974 0.17300636 -0.22891408
0000f0 9b c5 12 3d aa 80 8e 3e ce 70 df 3e 9d 00 1f be
       0.035832983 0.27832538 0.4364075 -0.15527578

fc2.weight f4 [64, 64]
000000 aa a2 ec 3d 90 09 27 3e 9f 6e 3a 3e 68 2c 10 be
       0.11554463 0.16312242 0.18206261 -0.1407944
000010 12 58 88 3f 91 df 13 3e 3e 00 c4 3e 39 4e fe bd
       1.0651877 0.14440753 0.38281435 -0.124172635
000020 f0 f5 85 3e 15 3f 35 3f 63 72 1f bd 9d eb 08 3f
       0.26164198 0.7079938 -0.038927447 0.5348452
000030 cd 73 12 3e 9b 9a 21 3f 08 77 4d bd 90 b8 08 3e
       0.14301987 0.63126534 -0.050162345 0.13351655
000040 e3 65 e7 be 9b fb e4 3e b2 d5 b4 3e 3b 6a 96 bd
       -0.4519492 0.4472321 0.35319287 -0.073444806
000050 b3 74 0f be c9 dd 1f 3f 98 85 a2 3f 81 47 02 3f
       -0.14009361 0.6244779 1.269702 0.50890356
000060 e2 df ac 3e e7 a4 63 3e 12 41 c0 bd 86 88 19 3f
       0.3376456 0.22230874 -0.09387411 0.59973943
000070 3c 21 cb 3c 63 d9 11 be 87 f7 85 3e e2 c3 1c 3f
       0.02479612 -0.14243083 0.2616541 0.61236393
000080 98 2d 37 39 23 0c 8b 3e 2a 82 5d 3e 7b a1 c8 bd
       0.00017469225 0.27157697 0.21631685 -0.09796425
000090 ed d5 4c 3f 32 41 44 bf 30 9d 35 3d 4d e4 16 3f
       0.80013925 -0.7666198 0.04433936 0.5894211
0000a0 c0 5b 9e 3e 07 9e 0c 3e 14 f8 ff 3e cb c2 0b 3f
       0.30929375 0.13732158 0.49993956 0.54594105
0000b0 9d 57 03 3e 99 f2 aa 3e f9 02 16 be 42 a4 51 3c
       0.1282639 0.33388212 -0.14649571 0.01279551
0000c0 9e c9 66 3e b5 85 6e 3e aa 20 d1 bf 20 22 29 3d
       0.22537848 0.23293193 -1.6338093 0.04129231
0000d0 9c f5 70 3e af 11 f1 3d 14 37 09 bf 99 32 11 bf
       0.23531193 0.11770951 -0.5359967 -0.5671783
0000e0 11 0f b0 3d 74 a4 9c 3c f6 f6 89 3e e7 4d 5b 3f
       0.08596624 0.019121386 0.2694623 0.85665745
0000f0 18 c0 09 3d 1e 0d 50 be e2 f9 97 bf 75 a9 f9 3e
       0.03363046 -0.20317504 -1.1873133 0.48762098
000100 61 95 05 3e 5d 77 1a 3e 40 6f d9 3d 95 e5 00 bf
       0.13045265 0.15084596 0.106169224 -0.50350314
000110 24 49 0c 3f 3d 70 af 3e e3 f9 92 3e 31 cb a8 3e
       0.54799104 0.3426532 0.28706273 0.32967523
000120 1d 46 04 bd 2d 60 86 be 46 74 8b be 04 91 dc 3e
       -0.032293428 -0.2624525 -0.27237147 0.43079388
000130 da 64 cc 3d ec 95 37 be e3 6d 1f bf c5 85 ea bd
       0.099801734 -0.17928284 -0.6227705 -0.11451296
000140 d0 87 d1 bd 5a 44 1f 3d cb 22 f9 3e 11 ec 1c 3e
       -0.10230982 0.038883545 0.48659357 0.15324427
000150 83 0a 79 3e d5 79 0f 3f 28 9b 60 3e 1f e9 87 be
       0.24320416 0.56045276 0.21934187 -0.26545045
000160 06 ea 72 3d ec 7e 57 3e 64 fe bb bd 60 38 e2 bc
       0.059305213 0.2104451 -0.091793805 -0.027614772
000170 8b 95 d1 3e 92 81 c8 3e 2a 4c ad 3d 0a dd 21 3f
       0.40934405 0.39161354 0.08461793 0.63227904
000180 58 98 15 3d c6 03 11 3d f9 2b 03 be 81 1a c3 3e
       0.03652224 0.03540399 -0.12809743 0.38106158
000190 c1 19 ee 3e 50 14 d9 bd ca 4f af 3d c9 f7 4d be
       0.46504024 -0.105995774 0.085601404 -0.20114054
0001a0 03 e2 33 3e 08 0b 57 3d e8 c9 1e be ae ca 50 3e
       0.17566685 0.052500755 -0.15506709 0.20389816
0001b0 86 02 5b 3d 0b a9 85 3e 8d 60 67 be 39 61 dd bd
       0.053469203 0.26105532 -0.22595425 -0.108095594
0001c0 ca da e6 be 94 66 dc 3d 0e 5e f9 3e 00 01 fd bd
       -0.45088798 0.10761753 0.4870457 -0.12353706
0001d0 b8 3d eb 3d c5 62 5e 3b 85 dd da bd c1 15 2f bd
       0.11486381 0.0033933383 -0.10686783 -0.042745356
0001e0 83 1a 78 3d 6c 88 ec be 01 65 06 be e9 1c 51 bf
       0.06057216 -0.46197832 -0.13124467 -0.8168474
0001f0 68 36 64 3e bd 88 0b 3e a9 ff d2 be b4 b5 4a bf
       0.2228638 0.1362638 -0.41210678 -0.79183507
000200 fc 08 32 3e cf 8d a2 3e 26 28 06 3e 4f 6e 94 be
       0.1738624 0.31748816 0.13101253 -0.2899041
000210 06 8a 82 3f d1 0a 44 3e 80 ec ea 3e d5 d1 26 be
       1.0198371 0.19144751 0.4588356 -0.16290982
000220 6d f9 68 3e 37 57 ba 3e b3 60 1a bc 1c 67 bf 3e
       0.22751398 0.36394665 -0.009422469 0.37383354
000230 a1 e8 5a 3e 50 43 30 3f e3 98 6c bc fb 46 02 3f
       0.21377803 0.6885271 -0.014440748 0.5088956
000240 16 8d c3 bd b9 5b b2 3e 4d 6f be 3e e6 8e 93 be
       -0.095483944 0.34835604 0.3719429 -0.2881996
000250 af ee c2 bd 82 0e a8 3e 71 e2 ab 3f c7 c5 e9 3e
       -0.095181815 0.3282357 1.342848 0.45658705
000260 33 93 04 3f 23 95 ac 3e 7b 9b 03 3d ea 49 27 3f
       0.5178711 0.33707532 0.0321307 0.6534716
000270 d0 f4 62 3d 4c 19 48 be b7 54 2e 3c b9 8f 37 3f
       0.055409253 -0.195409 0.010640315 0.7170368
000280 36 6e c5 3d 2c 0d 48 3e 84 10 56 3e fe b1 05 bd
       0.09640162 0.19536275 0.20904738 -0.03264045
000290 d3 81 0d 3f 41 36 0a bf cc f7 ca 3d 03 16 c1 3e
       0.5527622 -0.53989035 0.09910545 0.37712106
0002a0 94 2c 95 3e cf 8f 51 3e a7 e3 af 3e 75 6d 10 3f
       0.29135573 0.20465015 0.34353372 0.5641702
0002b0 ac 14 bc 3e eb 08 fc 3e 7a f9 8e be e2 83 03 3e
       0.3673452 0.49225554 -0.2792471 0.12843278
0002c0 7b 7c f6 3e 65 59 05 3f be 05 c0 bf db ae 05 3e
       0.48141846 0.5208953 -1.5001752 0.13054983
0002d0 39 f3 95 3e 9b 0b 7d 3e 5d 8e 00 bf e6 a0 9a be
       0.29287127 0.24711458 -0.5021723 -0.3020088
0002e0 01 73 72 3e 49 65 c6 3d 29 e9 f6 3c 5b 24 6c 3f
       0.23676683 0.09687287 0.030140476 0.92242974
0002f0 ef 99 26 3e 87 b4 a6 bd 53 f3 63 bf ac 9c 22 3f
       0.16269659 -0.081399016 -0.8904316 0.6352031
000300 b6 87 09 3e 06 bf b8 3e b5 ae 8c 3e 43 35 17 bf
       0.13430676 0.3608324 0.2747704 -0.59065646
000310 40 67 93 3f 59 42 30 3d 64 5a 21 3f 6f 43 83 bd
       1.1515884 0.043032024 0.6302855 -0.06409346
000320 6c f3 40 3f b8 0e 24 bd 26 b5 a3 3d 46 35 8a 3e
       0.7537143 -0.0400531 0.07993536 0.2699377
000330 a7 60 33 3e b9 61 80 3f fd 22 93 bc c8 06 fc 3d
       0.17517339 1.0029823 -0.01796102 0.12305981
000340 c6 4c 5f be 3a 20 0c 3f 1f b5 80 3e 23 00 65 bd
       -0.2180663 0.54736674 0.25138184 -0.055908334
000350 9e 32 17 3d 1e e4 3e 3e b5 23 60 3f 16 3c 27 3f
       0.036913507 0.18641707 0.87554485 0.6532606
000360 de 4f 51 3f 8d 45 ad 3e 88 85 c5 3d 56 2d 29 3f
       0.8176249 0.33842126 0.0964461 0.660848
000370 0f 6e 00 3e 25 5b a3 bd f1 d4 87 3e 06 29 ca 3d
       0.12541984 -0.07976369 0.2652965 0.09871106
000380 e1 85 f4 3e c0 5f 8a 3e 81 f8 bc 3e bc a8 2f 3b
       0.47758391 0.27026176 0.36908343 0.0026803454
000390 c2 43 56 3d e8 74 2d bf 06 90 fe 3d 88 00 4b 3d
       0.052310713 -0.6775651 0.12429814 0.049561054
0003a0 be 27 40 3e 5c ec 1a 3e fc 30 4e bd 2d f9 14 3f
       0.1876516 0.15129226 -0.050339684 0.5819271
0003b0 b7 fd 27 3f 57 43 06 3f 14 4c d5 be ab ed b4 3e
       0.65621513 0.524465 -0.41659606 0.35337576
0003c0 5e 4b 6c 3e 78 e6 20 3f e5 0b e6 bf 0c 0a 86 3e
       0.23075625 0.6285167 -1.797238 0.2617954
0003d0 a0 8b 03 3f 97 00 3c 3e 2d 0b f4 be b4 f7 34 3d
       0.51384926 0.183596 -0.47664776 0.04418154
0003e0 3b 8e a0 3e aa 17 8a bb 3c 75 db 3d 79 1a 15 3f
       0.31358513 -0.0042142468 0.1071572 0.5824352
0003f0 db 66 67 3e ca dd 5b 3d 5a 83 1d bf 7a 22 0a 3f
       0.2259783 0.05367831 -0.6152855 0.5395886

fc2.bias f4 [64]
000000 3d 5c a1 bd 06 85 f6 be fa ff 5d be ad 69 82 bc
       -0.07878921 -0.48148364 -0.21679679 -0.01591953
000010 2c 3b 43 bd a6 61 f7 bd 82 d8 b2 3d 66 20 3f bc
       -0.047663853 -0.12079172 0.08732702 -0.011665439
000020 18 00 ee 3c 66 7d b0 bb 65 4e 28 be 96 81 11 be
       0.02905278 -0.0053860424 -0.16436155 -0.1420959
000030 d0 94 80 be 9d 59 2d be 12 7a 86 3b 06 39 3c 3f
       -0.25113535 -0.16928716 0.0041039074 0.7352451
000040 2d ad fb 3d d2 17 2c be 40 cf 97 3e ae 1f fe bd
       0.1228889 -0.16805962 0.29650307 -0.12408386
000050 3c bf e8 bd 7a 24 0b bc 10 03 c5 3d c6 ce 0d be
       -0.113646 -0.008492583 0.09619725 -0.13848409
000060 4a 7c 46 be f9 cd 68 3f 75 5d 43 bd 43 7d 55 be
       -0.1938335 0.9093929 -0.04769655 -0.20848565
000070 3e 45 d4 3c 16 ed 46 be 21 a7 de 3e a6 f6 34 bb
       0.025911923 -0.19426379 0.43486884 -0.0027612834
000080 49 7d 29 be 72 ea b1 3d a6 b6 43 be a7 8e 0d 3e
       -0.16551699 0.08687295 -0.19112644 0.13823949
000090 d1 ca 53 bd 41 6a dd 3c fd 08 3f be c1 68 9b 3d
       -0.051707093 0.027028205 -0.18655773 0.075883396
0000a0 d7 de ed bd e0 38 41 bc b6 9c 2d 3d d3 42 2e 3e
       -0.11614769 -0.011793345 0.04238578 0.17017679
0000b0 84 b1 f5 bd 7f 52 97 3e a8 c0 bc bd 0d e3 80 bd
       -0.11996749 0.29555127 -0.09216434 -0.062933065
0000c0 01 b5 be bd 2e 16 a7 bd 5e 6e 54 bc b4 18 9a be
       -0.093118675 -0.08158527 -0.012965767 -0.30096972
0000d0 4c 5f 7b 3e 9f fc 93 3e 6a 25 03 be 99 08 77 3f
       0.24548072 0.28903672 -0.12807241 0.96497494
0000e0 02 92 b0 bd ad 7e ab bd 38 5c ee bd e7 3e c7 bd
       -0.08621599 -0.08373771 -0.11638683 -0.097287945
0000f0 ef af 41 be da 39 54 be 36 71 15 3d 15 0c b7 bd
       -0.1891477 -0.20725194 0.03648492 -0.08937851

fc3.weight f4 [4, 64]
000000 5b a9 6d bf 46 48 f3 3e 7c b4 fd be 1a 77 cd be
       -0.9283654 0.47516078 -0.4955176 -0.4012993
000010 30 9e e3 be 2e e1 d9 be 6f b6 b6 3f 18 db 4a 3d
       -0.44456625 -0.4255461 1.4274424 0.04952535
000020 b8 03 c7 bd 4d d6 a3 bf 73 0c ef be 94 65 65 bd
       -0.09717506 -1.2799774 -0.46689186 -0.056005076
000030 c5 0c d4 be cc f1 de be a6 7d 9a bf 8d 37 89 3f
       -0.41415992 -0.4354385 -1.2069595 1.0720078
000040 06 1c b1 3f 06 f6 11 bf d5 7e 21 40 85 fd 9a be
       1.3836677 -0.57016027 2.5233662 -0.30271545
000050 3d 48 ee be 14 b3 14 bf 84 c2 6f 3f b8 ba e2 bc
       -0.46539488 -0.5808575 0.9365618 -0.027676925
000060 1c 48 ac be 63 d2 fa 3f f7 74 b4 be 4b a7 02 bf
       -0.33648765 1.9595455 -0.35245487 -0.5103652
000070 06 4b dd be 0c d0 07 bf 35 62 37 bd 38 3a 6a 3d
       -0.432213 -0.5305183 -0.044771392 0.057184428
000080 8b 2c 00 bf b6 96 94 bd 8c be b6 be 60 96 bb be
       -0.5006797 -0.07255308 -0.3569225 -0.36638165
000090 50 01 42 bf 63 5b 97 be 9f 4f 22 bf 43 5b d6 bf
       -0.7578325 -0.2956191 -0.6340274 -1.6746601
0000a0 44 c7 92 be 86 b3 4e be 9d 0d 59 bc 4b 34 7c 3e
       -0.28667653 -0.2018567 -0.013247875 0.24629323
0000b0 aa 8b 37 3d 1f 8b 38 3f da a0 98 3d b7 30 e8 be
       0.04481093 0.7208728 0.07452555 -0.45349666
0000c0 6a d2 fa be 03 ae 04 bf 0a a5 d0 3f 60 58 f0 be
       -0.48988658 -0.5182802 1.6300366 -0.46942425
0000d0 48 75 f2 3f 4e 37 51 3f cf 5a a7 be 47 33 b9 3f
       1.8942041 0.81725013 -0.3268647 1.4468774
0000e0 2c 7a 20 bf 0e 99 af be a3 60 23 3c 4c 66 c4 be
       -0.6268642 -0.3429646 0.00997177 -0.38359296
0000f0 53 79 19 bf 07 3c ef be 5e 94 1d 40 ea a0 b9 be
       -0.5995075 -0.46725485 2.4621806 -0.3625558
000100 f5 d2 c9 be b9 f3 11 3f 78 12 c5 be af 06 fe be
       -0.3941876 0.57012516 -0.38490653 -0.49614474
000110 09 11 ee be 80 d1 dd be d6 48 b4 3f 91 e0 71 bd
       -0.46497372 -0.43323898 1.4084728 -0.059052054
000120 2a fc e3 3d da bb 96 bf 2d df f4 be fc 9b 35 bd
       0.11132081 -1.1776078 -0.4782652 -0.04433821
000130 ef 95 e1 3d 8b b7 f5 be 5d 1b e2 be e5 af 28 3f
       0.11014926 -0.47991595 -0.44161502 0.65893394
000140 54 16 8b 3f 01 66 84 be 26 ba 14 40 de 71 da be
       1.0866189 -0.25859073 2.3238616 -0.42665
000150 9e a8 d0 be 0f 35 0b bf 57 9c 10 3f 3d ac 46 bd
       -0.40753645 -0.54377836 0.56488556 -0.048504103
000160 bc 9d f3 be 42 1b 06 40 d5 d6 37 bf 32 82 e6 be
       -0.4758128 2.0954137 -0.7181218 -0.45021206
000170 94 98 1d bf f0 92 06 bf 0b 16 fe be 1e db 1a 3d
       -0.6156094 -0.5256796 -0.49626192 0.037806623
000180 ab 93 e5 be 36 5b 70 be cd a9 e7 be d2 31 75 3f
       -0.44839224 -0.23472294 -0.45246735 0.95779145
000190 46 21 f7 3c 68 1c 2e bf a3 d5 b8 be 30 7f 8b bf
       0.030167233 -0.68012094 -0.36100492 -1.089819
0001a0 44 c3 0b bf 50 38 66 bf 54 c2 fe be 1f ee 02 3f
       -0.54594827 -0.89929676 -0.49757636 0.51144594
0001b0 4a 96 58 bd 2e 4f 07 3f cc fa d0 3d 8b 5c 11 bf
       -0.0528777 0.52855194 0.10204086 -0.56781834
0001c0 f2 dd e3 be a2 b9 5e bf 4e 3f e8 3f da 65 79 be
       -0.44505268 -0.87002003 1.8144319 -0.2435526
0001d0 24 99 11 40 50 2a bf 3e 31 aa 0e bf a2 9c cd 3f
       2.274972 0.3733697 -0.5572844 1.6063426
0001e0 e6 d1 cf be 48 db df be 0b 66 34 bd 30 bc 01 bf
       -0.40589827 -0.43721986 -0.04404263 -0.50677776
0001f0 e8 b3 05 bf e6 8b d3 be d7 3b 28 40 2b aa d0 be
       -0.5222764 -0.41317672 2.6286523 -0.40754828
000200 a6 85 56 bf 05 7a 99 bf 7d 61 1c bf e4 a0 8a be
       -0.8379768 -1.1990362 -0.61086255 -0.27075875
000210 d1 37 dd bd 1f 03 95 be 21 b2 99 3f 9e fa 69 3d
       -0.10801662 -0.29103944 1.2007486 0.057123773
000220 4c 08 af 3d 0a 63 6a 3e 85 df 81 be f1 fc b6 3c
       0.085465044 0.22889343 -0.25365844 0.022337409
000230 c7 d9 8f bd 80 61 fd be a7 ed 48 bf 8d e0 a7 3f
       -0.070239596 -0.4948845 -0.7848763 1.3115402
000240 fb 6d 35 40 31 55 2f bf b6 3a c8 3f 91 16 f8 be
       2.8348377 -0.68489367 1.5642917 -0.48454717
000250 b0 80 6d be 44 58 76 bf 02 36 1c be b2 46 17 bc
       -0.23193622 -0.9622843 -0.15254977 -0.009233164
000260 e5 92 b0 be b8 6c 5e 3f c0 93 90 bf e1 6f 19 bf
       -0.34487072 0.8688464 -1.129509 -0.5993634
000270 e8 58 cc be 20 48 48 be f5 97 05 bf 17 7b 8e 3d
       -0.3991158 -0.19558764 -0.52184993 0.06957071
000280 86 9d c4 be be 8e af 3e 80 4f c3 be 82 2b 33 bf
       -0.3840143 0.3428859 -0.3814659 -0.6998826
000290 a7 c6 f5 3e 6a 18 cd be 91 02 df be 19 6c 58 bf
       0.48003122 -0.4005769 -0.43556646 -0.84539944
0002a0 4a c0 fb be 48 d1 41 bf 01 64 34 bf d3 1d 35 3f
       -0.49170142 -0.7570996 -0.70465094 0.70748633
0002b0 10 0e 61 bc bd 9b c4 3f d6 6e 98 bd ae 30 f5 be
       -0.013736263 1.5360028 -0.07443015 -0.47888702
0002c0 58 f8 d9 be 88 f1 32 bf 4e a6 29 3f 1c ca 55 bf
       -0.42572284 -0.698998 0.66269386 -0.8351152
0002d0 06 c0 b2 3f f3 94 41 bf 4a 69 d4 be 13 45 04 40
       1.3964851 -0.75617903 -0.4148658 2.066716
0002e0 1a 48 e2 bd 6e 7f 8e be 28 2d 8c 3c 7e d6 81 be
       -0.110489085 -0.27831596 0.017111376 -0.25358957
0002f0 57 08 84 be f1 e7 09 bf 28 b7 1e 40 b8 e6 fe be
       -0.25787613 -0.5386954 2.479929 -0.497854
000300 fc 51 4d bf 43 7f 7b 3e a7 54 d4 be 53 25 1f bf
       -0.80203223 0.24560265 -0.41470835 -0.6216633
000310 17 2d 02 bf 7e 57 e8 be 85 7b d0 3f 80 52 6e bd
       -0.5085005 -0.4537925 1.6287695 -0.058184147
000320 50 47 93 3c f5 2f 35 be fa 74 dc be 80 12 23 bb
       0.01797834 -0.17694075 -0.43057996 -0.0024882853
000330 be 55 28 bf e1 64 ff be 01 ff bf be 8a 96 c5 3f
       -0.6575583 -0.49881652 -0.3749924 1.5436566
000340 89 a1 93 3f 3e b1 69 be af 4b 1d 40 3c 7c 00 bf
       1.1533672 -0.22821519 2.4577444 -0.50189567
000350 ec 2f 09 bf b9 5a 09 bf 29 26 fb 3f e7 c9 55 bc
       -0.5358875 -0.53654057 1.962102 -0.013048626
000360 46 6b f1 be 25 e1 f6 3f d7 ba 28 bf 06 05 1d bf
       -0.47152156 1.9287459 -0.65910095 -0.6133579
000370 b3 47 fe be a2 b3 02 bf 10 ec 79 3e a2 a5 ba bd
       -0.49664077 -0.5105535 0.24406457 -0.09113623
000380 f8 5b 1c bf 0a f5 d5 3e 70 73 1b bf 17 99 04 be
       -0.61077833 0.41788512 -0.6072302 -0.12949024
000390 a1 10 01 bf b5 b8 d9 be 66 64 1b bf 71 2f 88 bf
       -0.50416 -0.42523733 -0.6070007 -1.0639478
0003a0 e0 83 ba be 87 be 44 be 87 af b2 be 5a 39 af be
       -0.36428738 -0.19213305 -0.34899542 -0.34223443
0003b0 7a db d1 3d ba 12 88 3e c6 05 21 3d b9 46 d6 be
       0.1024694 0.26576787 0.039312147 -0.41850832
0003c0 cb 43 11 bf 4e 91 80 be a7 54 f9 3f 94 cf 09 bf
       -0.5674407 -0.2511086 1.9478959 -0.53832364
0003d0 81 6e 01 40 1e 52 a5 3f 30 c7 25 bf 59 51 6c 3f
       2.0223696 1.2915685 -0.6475706 0.92311627
0003e0 94 35 26 be 08 e9 18 bf 86 46 8f 3d 89 6c 1a bf
       -0.16231376 -0.5973058 0.06995873 -0.6032186
0003f0 ce 97 a0 be ac cb 34 bf f7 ec 1e 40 3e 8e fd be
       -0.31365818 -0.7062328 2.4832132 -0.49522585

fc3.bias f4 [4]
000000 2f eb 72 3e ea d5 31 3e f7 9a 96 3e 17 60 9c 3e
       0.23722528 0.17366758 0.29415104 0.3054206
